…
的数学公式；针对某个cell，某个类被预测，则为1，该cell如果有物体，那这个位置肯定为1 如果某个cell的某个anchor不负责检测某个ground truth，那只有置信度的loss，位置，高宽，分类loss全部没有 anchors1anchors = [[10, 13, 16, 30, 33, 23], [30, 61, 62, 45, 59, 119], [116, 90, 156, 198, 373, 326]], 这个应该是相对于416的宽和高，相对于416，320，608训练的时候是等比例调整得，同样等比例调整了的应该还有label值 yolov3的anchor和faster-rcnn的 anchor有如下区别 yolov3的anchor是聚类生成的，faster-rcnn是三个尺度，单个大小固定生成的 预测的时候yolov3多坐标是相对于目标像素左上角的，faster-rcnn是相对于全图的 yolov3是三个尺度每个尺度分配3个anchor，faster-rcnn是每个像素分配9个anchor yolov3与yolov2的区别一个区别是v3采用fpn的多尺度，增加检测的准确性，另一个是分类网络没有使用soft而是针对每个类别做一个二分类，20类的pascal voc就有20个二分类器 yolov3 … filters size input output0 0 conv 32 3 x 3 / 1 416 x 416 x 3 -&gt; 416 x 416 x 32 0.299 BFLOPs1 1 conv 64 3 x 3 / 2 416 x 416 x 32 -&gt; 208 x 208 x 64 1.595 BFLOPs2 2 conv 32 1 x 1 / 1 208 x 208 x 64 -&gt; 208 x 208 x 32 0.177 BFLOPs3 3 conv 64 3 x 3 / 1 208 x 208 x 32 -&gt; 208 x 208 x 64 1.595 BFLOPs 4 res 1 208 x 208 x 64 -&gt; 208 x 208 x 644 5 conv 128 3 x 3 / 2 208 x 208 x 64 -&gt; 104 x 104 x 128 1.595 BFLOPs5 6 conv 64 1 x 1 / 1 104 x 104 x 128 -&gt; 104 x 104 x 64 0.177 BFLOPs6 7 conv 128 3 x 3 / 1 104 x 104 x 64 -&gt; 104 x 104 x 128 1.595 BFLOPs 8 res 5 104 x 104 x 128 -&gt; 104 x 104 x 1287 9 conv 64 1 x 1 / 1 104 x 104 x 128 -&gt; 104 x 104 x 64 0.177 BFLOPs8 10 conv 128 3 x 3 / 1 104 x 104 x 64 -&gt; 104 x 104 x 128 1.595 BFLOPs 11 res 8 104 x 104 x 128 -&gt; 104 x 104 x 1289 12 conv 256 3 x 3 / 2 104 x 104 x 128 -&gt; 52 x 52 x 256 1.595 BFLOPs10 13 conv 128 1 x 1 / 1 52 x 52 x 256 -&gt; 52 x 52 x 128 0.177 BFLOPs11 14 conv 256 3 x 3 / 1 52 x 52 x 128 -&gt; 52 x 52 x 256 1.595 BFLOPs 15 res 12 52 x 52 x 256 -&gt; 52 x 52 x 25612 16 conv 128 1 x 1 / 1 52 x 52 x 256 -&gt; 52 x 52 x 128 0.177 BFLOPs13 17 conv 256 3 x 3 / 1 52 x 52 x 128 -&gt; 52 x 52 x 256 1.595 BFLOPs 18 res 15 52 x 52 x 256 -&gt; 52 x 52 x 25614 19 conv 128 1 x 1 / 1 52 x 52 x 256 -&gt; 52 x 52 x 128 0.177 BFLOPs15 20 conv 256 3 x 3 / 1 52 x 52 x 128 -&gt; 52 x 52 x 256 1.595 BFLOPs 21 res 18 52 x 52 x 256 -&gt; 52 x 52 x 25616 22 conv 128 1 x 1 / 1 52 x 52 x 256 -&gt; 52 x 52 x 128 0.177 BFLOPs17 23 conv 256 3 x 3 / 1 52 x 52 x 128 -&gt; 52 x 52 x 256 1.595 BFLOPs 24 res 21 52 x 52 x 256 -&gt; 52 x 52 x 25618 25 conv 128 1 x 1 / 1 52 x 52 x 256 -&gt; 52 x 52 x 128 0.177 BFLOPs19 26 conv 256 3 x 3 / 1 52 x 52 x 128 -&gt; 52 x 52 x 256 1.595 BFLOPs 27 res 24 52 x 52 x 256 -&gt; 52 x 52 x 25620 28 conv 128 1 x 1 / 1 52 x 52 x 256 -&gt; 52 x 52 x 128 0.177 BFLOPs21 29 conv 256 3 x 3 / 1 52 x 52 x 128 -&gt; 52 x 52 x 256 1.595 BFLOPs 30 res 27 52 x 52 x 256 -&gt; 52 x 52 x 25622 31 conv 128 1 x 1 / 1 52 x 52 x 256 -&gt; 52 x 52 x 128 0.177 BFLOPs23 32 conv 256 3 x 3 / 1 52 x 52 x 128 -&gt; 52 x 52 x 256 1.595 BFLOPs 33 res 30 52 x 52 x 256 -&gt; 52 x 52 x 25624 34 conv 128 1 x 1 / 1 52 x 52 x 256 -&gt; 52 x 52 x 128 0.177 BFLOPs25 35 conv 256 3 x 3 / 1 52 x 52 x 128 -&gt; 52 x 52 x 256 1.595 BFLOPs 36 res 33 52 x 52 x 256 -&gt; 52 x 52 x 256fpn1---------------------------------------------------------26 37 conv 512 3 x 3 / 2 52 x 52 x 256 -&gt; 26 x 26 x 512 1.595 BFLOPs27 38 conv 256 1 x 1 / 1 26 x 26 x 512 -&gt; 26 x 26 x 256 0.177 BFLOPs28 39 conv 512 3 x 3 / 1 26 x 26 x 256 -&gt; 26 x 26 x 512 1.595 BFLOPs 40 res 37 26 x 26 x 512 -&gt; 26 x 26 x 51229 41 conv 256 1 x 1 / 1 26 x 26 x 512 -&gt; 26 x 26 x 256 0.177 BFLOPs30 42 conv 512 3 x 3 / 1 26 x 26 x 256 -&gt; 26 x 26 x 512 1.595 BFLOPs 43 res 40 26 x 26 x 512 -&gt; 26 x 26 x 51231 44 conv 256 1 x 1 / 1 26 x 26 x 512 -&gt; 26 x 26 x 256 0.177 BFLOPs32 45 conv 512 3 x 3 / 1 26 x 26 x 256 -&gt; 26 x 26 x 512 1.595 BFLOPs 46 res 43 26 x 26 x 512 -&gt; 26 x 26 x 51233 47 conv 256 1 x 1 / 1 26 x 26 x 512 -&gt; 26 x 26 x 256 0.177 BFLOPs34 48 conv 512 3 x 3 / 1 26 x 26 x 256 -&gt; 26 x 26 x 512 1.595 BFLOPs 49 res 46 26 x 26 x 512 -&gt; 26 x 26 x 51235 50 conv 256 1 x 1 / 1 26 x 26 x 512 -&gt; 26 x 26 x 256 0.177 BFLOPs36 51 conv 512 3 x 3 / 1 26 x 26 x 256 -&gt; 26 x 26 x 512 1.595 BFLOPs 52 res 49 26 x 26 x 512 -&gt; 26 x 26 x 51237 53 conv 256 1 x 1 / 1 26 x 26 x 512 -&gt; 26 x 26 x 256 0.177 BFLOPs38 54 conv 512 3 x 3 / 1 26 x 26 x 256 -&gt; 26 x 26 x 512 1.595 BFLOPs 55 res 52 26 x 26 x 512 -&gt; 26 x 26 x 51239 56 conv 256 1 x 1 / 1 26 x 26 x 512 -&gt; 26 x 26 x 256 0.177 BFLOPs40 57 conv 512 3 x 3 / 1 26 x 26 x 256 -&gt; 26 x 26 x 512 1.595 BFLOPs 58 res 55 26 x 26 x 512 -&gt; 26 x 26 x 51241 59 conv 256 1 x 1 / 1 26 x 26 x 512 -&gt; 26 x 26 x 256 0.177 BFLOPs42 60 conv 512 3 x 3 / 1 26 x 26 x 256 -&gt; 26 x 26 x 512 1.595 BFLOPs 61 res 58 26 x 26 x 512 -&gt; 26 x 26 x 512fpn2------------------------------------------------------------43 62 conv 1024 3 x 3 / 2 26 x 26 x 512 -&gt; 13 x 13 x1024 1.595 BFLOPs44 63 conv 512 1 x 1 / 1 13 x 13 x1024 -&gt; 13 x 13 x 512 0.177 BFLOPs45 64 conv 1024 3 x 3 / 1 13 x 13 x 512 -&gt; 13 x 13 x1024 1.595 BFLOPs 65 res 62 13 x 13 x1024 -&gt; 13 x 13 x102446 66 conv 512 1 x 1 / 1 13 x 13 x1024 -&gt; 13 x 13 x 512 0.177 BFLOPs47 67 conv 1024 3 x 3 / 1 13 x 13 x 512 -&gt; 13 x 13 x1024 1.595 BFLOPs 68 res 65 13 x 13 x1024 -&gt; 13 x 13 x102448 69 conv 512 1 x 1 / 1 13 x 13 x1024 -&gt; 13 x 13 x 512 0.177 BFLOPs49 70 conv 1024 3 x 3 / 1 13 x 13 x 512 -&gt; 13 x 13 x1024 1.595 BFLOPs 71 res 68 13 x 13 x1024 -&gt; 13 x 13 x102450 72 conv 512 1 x 1 / 1 13 x 13 x1024 -&gt; 13 x 13 x 512 0.177 BFLOPs51 73 conv 1024 3 x 3 / 1 13 x 13 x 512 -&gt; 13 x 13 x1024 1.595 BFLOPs 74 res 71 13 x 13 x1024 -&gt; 13 x 13 x1024fpn3--------------------------------------------------------------- 0 75 conv 512 1 x 1 / 1 13 x 13 x1024 -&gt; 13 x 13 x 512 0.177 BFLOPs1 76 conv 1024 3 x 3 / 1 13 x 13 x 512 -&gt; 13 x 13 x1024 1.595 BFLOPs2 77 conv 512 1 x 1 / 1 13 x 13 x1024 -&gt; 13 x 13 x 512 0.177 BFLOPs3 78 conv 1024 3 x 3 / 1 13 x 13 x 512 -&gt; 13 x 13 x1024 1.595 BFLOPs4 79 conv 512 1 x 1 / 1 13 x 13 x1024 -&gt; 13 x 13 x 512 0.177 BFLOPs5 80 conv 1024 3 x 3 / 1 13 x 13 x 512 -&gt; 13 x 13 x1024 1.595 BFLOPs58 81 conv 75 1 x 1 / 1 13 x 13 x1024 -&gt; 13 x 13 x 75 0.026 BFLOPs 82 yolo 83 route 7959 84 conv 256 1 x 1 / 1 13 x 13 x 512 -&gt; 13 x 13 x 256 0.044 BFLOPs 85 upsample 2x 13 x 13 x 256 -&gt; 26 x 26 x 256 86 route 85 6160 87 conv 256 1 x 1 / 1 26 x 26 x 768 -&gt; 26 x 26 x 256 0.266 BFLOPs88 conv 512 3 x 3 / 1 26 x 26 x 256 -&gt; 26 x 26 x 512 1.595 BFLOPs89 conv 256 1 x 1 / 1 26 x 26 x 512 -&gt; 26 x 26 x 256 0.177 BFLOPs90 conv 512 3 x 3 / 1 26 x 26 x 256 -&gt; 26 x 26 x 512 1.595 BFLOPs91 conv 256 1 x 1 / 1 26 x 26 x 512 -&gt; 26 x 26 x 256 0.177 BFLOPs92 conv 512 3 x 3 / 1 26 x 26 x 256 -&gt; 26 x 26 x 512 1.595 BFLOPs93 conv 75 1 x 1 / 1 26 x 26 x 512 -&gt; 26 x 26 x 75 0.052 BFLOPs94 yolo95 route 9196 conv 128 1 x 1 / 1 26 x 26 x 256 -&gt; 26 x 26 x 128 0.044 BFLOPs97 upsample 2x 26 x 26 x 128 -&gt; 52 x 52 x 12898 route 97 3699 conv 128 1 x 1 / 1 52 x 52 x 384 -&gt; 52 x 52 x 128 0.266 BFLOPs100 conv 256 3 x 3 / 1 52 x 52 x 128 -&gt; 52 x 52 x 256 1.595 BFLOPs101 conv 128 1 x 1 / 1 52 x 52 x 256 -&gt; 52 x 52 x 128 0.177 BFLOPs102 conv 256 3 x 3 / 1 52 x 52 x 128 -&gt; 52 x 52 x 256 1.595 BFLOPs103 conv 128 1 x 1 / 1 52 x 52 x 256 -&gt; 52 x 52 x 128 0.177 BFLOPs104 conv 256 3 x 3 / 1 52 x 52 x 128 -&gt; 52 x 52 x 256 1.595 BFLOPs105 conv 75 1 x 1 / 1 52 x 52 x 256 -&gt; 52 x 52 x 75 0.104 BFLOPs106 yolo--------------------- YOLOOutputV3从tip卷积套件relu输出开始，到推理的reshape成detection结束。 针对最后一个尺度：卷积输出24=（1+4+3）3,3是类别，4代表一个box，1代表是否有物体，最后的3=6/2，anchor两个一组，一组分别代表高和宽。yolo3.py-&gt;YOLOOutputV3-&gt;123行-&gt;pred-&gt;24x169 (1+4+3)x3x13x13(置信度+坐标+类别)xanchor数量x高x宽pred-&gt;169x3x8 列代表特征位置，横代表anchor的index，通道分别是置信度，位置，类别raw_box_centers-&gt;169x3x2 每个格子，每个anchor相对
…
